…
wandb: Run data is saved locally in models/oc20/s2ef/2M/equiformer_v2/N@12_L@6_M@2/bs@64_lr@2e-4_wd@1e-3_epochs@12_warmup-epochs@0.1_g@1x1/logs/wandb/2025-03-20-08-49-20/wandb/run-20250320_084848-2025-03-20-08-49-20
wandb: Run `wandb offline` to turn off syncing.
wandb: Syncing run 2025-03-20-08-49-20
wandb: ⭐️ View project at https://wandb.ai/hyukjunlim-seoul-national-university/equiformer_v2
wandb: 🚀 View run at https://wandb.ai/hyukjunlim-seoul-national-university/equiformer_v2/runs/2025-03-20-08-49-20
Loading dataset: trajectory_lmdb_v2
Loading model: equiformer_v2
EquiformerV2_OC20(
  (sphere_embedding): Embedding(90, 128)
  (distance_expansion): GaussianSmearing()
  (SO3_rotation): ModuleList(
    (0): SO3_Rotation(
      (mapping): CoefficientMappingModule(lmax_list=[6], mmax_list=[6])
    )
  )
  (mappingReduced): CoefficientMappingModule(lmax_list=[6], mmax_list=[3])
  (SO3_grid): (6, 6)
  (edge_degree_embedding): EdgeDegreeEmbedding(
    (SO3_rotation): ModuleList(
      (0): SO3_Rotation(
        (mapping): CoefficientMappingModule(lmax_list=[6], mmax_list=[6])
      )
    )
    (mappingReduced): CoefficientMappingModule(lmax_list=[6], mmax_list=[3])
    (source_embedding): Embedding(90, 128)
    (target_embedding): Embedding(90, 128)
    (rad_func): RadialFunction(
      (net): Sequential(
        (0): Linear(in_features=856, out_features=128, bias=True)
        (1): LayerNorm((128,), eps=1e-05, elementwise_affine=True)
        (2): SiLU()
        (3): Linear(in_features=128, out_features=128, bias=True)
        (4): LayerNorm((128,), eps=1e-05, elementwise_affine=True)
        (5): SiLU()
        (6): Linear(in_features=128, out_features=896, bias=True)
      )
    )
  )
  (blocks): ModuleList(
    (0): TransBlockV2(
      (norm_1): EquivariantLayerNormArraySphericalHarmonics(lmax=6, num_channels=128, eps=1e-05, std_balance_degrees=True)
      (ga): SO2EquivariantGraphAttention(
        (SO3_rotation): ModuleList(
          (0): SO3_Rotation(
            (mapping): CoefficientMappingModule(lmax_list=[6], mmax_list=[6])
          )
        )
        (mappingReduced): CoefficientMappingModule(lmax_list=[6], mmax_list=[3])
        (SO3_grid): (6, 6)
        (source_embedding): Embedding(90, 128)
        (target_embedding): Embedding(90, 128)
        (so2_conv_1): SO2_Convolution(
          (mappingReduced): CoefficientMappingModule(lmax_list=[6], mmax_list=[3])
          (fc_m0): Linear(in_features=1792, out_features=1024, bias=True)
          (so2_m_conv): ModuleList(
            (0): SO2_m_Convolution(
              (fc): Linear(in_features=1536, out_features=768, bias=False)
            )
            (1): SO2_m_Convolution(
              (fc): Linear(in_features=1280, out_features=640, bias=False)
            )
            (2): SO2_m_Convolution(
              (fc): Linear(in_features=1024, out_features=512, bias=False)
            )
          )
          (rad_func): RadialFunction(
            (net): Sequential(
              (0): Linear(in_features=856, out_features=128, bias=True)
              (1): LayerNorm((128,), eps=1e-05, elementwise_affine=True)
              (2): SiLU()
              (3): Linear(in_features=128, out_features=128, bias=True)
              (4): LayerNorm((128,), eps=1e-05, elementwise_affine=True)
              (5): SiLU()
              (6): Linear(in_features=128, out_features=5632, bias=True)
            )
          )
        )
        (alpha_norm): LayerNorm((64,), eps=1e-05, elementwise_affine=True)
        (alpha_act): SmoothLeakyReLU(negative_slope=0.2)
        (alpha_dropout): Dropout(p=0.1, inplace=False)
        (s2_act): SeparableS2Activation(
          (scalar_act): SiLU()
          (s2_act): S2Activation(
            (act): SiLU()
          )
        )
        (so2_conv_2): SO2_Convolution(
          (mappingReduced): CoefficientMappingModule(lmax_list=[6], mmax_list=[3])
          (fc_m0): Linear(in_features=448, out_features=896, bias=True)
          (so2_m_conv): ModuleList(
            (0): SO2_m_Convolution(
              (fc): Linear(in_features=384, out_features=1536, bias=False)
            )
            (1): SO2_m_Convolution(
              (fc): Linear(in_features=320, out_features=1280, bias=False)
            )
            (2): SO2_m_Convolution(
              (fc): Linear(in_features=256, out_features=1024, bias=False)
            )
          )
        )
        (proj): SO3_LinearV2(in_features=128, out_features=128, lmax=6)
      )
      (drop_path): GraphDropPath(drop_prob=0.1)
      (norm_2): EquivariantLayerNormArraySphericalHarmonics(lmax=6, num_channels=128, eps=1e-05, std_balance_degrees=True)
      (ffn): FeedForwardNetwork(
        (SO3_grid): (6, 6)
        (so3_linear_1): SO3_LinearV2(in_features=128, out_features=128, lmax=6)
        (scalar_mlp): Sequential(
          (0): Linear(in_features=128, out_features=128, bias=True)
          (1): SiLU()
        )
        (grid_mlp): Sequential(
          (0): Linear(in_features=128, out_features=128, bias=False)
          (1): SiLU()
          (2): Linear(in_features=128, out_features=128, bias=False)
          (3): SiLU()
          (4): Linear(in_features=128, out_features=128, bias=False)
        )
        (so3_linear_2): SO3_LinearV2(in_features=128, out_features=128, lmax=6)
      )
    )
    (1): TransBlockV2(
      (norm_1): EquivariantLayerNormArraySphericalHarmonics(lmax=6, num_channels=128, eps=1e-05, std_balance_degrees=True)
      (ga): SO2EquivariantGraphAttention(
        (SO3_rotation): ModuleList(
          (0): SO3_Rotation(
            (mapping): CoefficientMappingModule(lmax_list=[6], mmax_list=[6])
          )
        )
        (mappingReduced): CoefficientMappingModule(lmax_list=[6], mmax_list=[3])
        (SO3_grid): (6, 6)
        (source_embedding): Embedding(90, 128)
        (target_embedding): Embedding(90, 128)
        (so2_conv_1): SO2_Convolution(
          (mappingReduced): CoefficientMappingModule(lmax_list=[6], mmax_list=[3])
          (fc_m0): Linear(in_features=1792, out_features=1024, bias=True)
          (so2_m_conv): ModuleList(
            (0): SO2_m_Convolution(
              (fc): Linear(in_features=1536, out_features=768, bias=False)
            )
            (1): SO2_m_Convolution(
              (fc): Linear(in_features=1280, out_features=640, bias=False)
            )
            (2): SO2_m_Convolution(
              (fc): Linear(in_features=1024, out_features=512, bias=False)
            )
          )
          (rad_func): RadialFunction(
            (net): Sequential(
              (0): Linear(in_features=856, out_features=128, bias=True)
              (1): LayerNorm((128,), eps=1e-05, elementwise_affine=True)
              (2): SiLU()
              (3): Linear(in_features=128, out_features=128, bias=True)
              (4): LayerNorm((128,), eps=1e-05, elementwise_affine=True)
              (5): SiLU()
              (6): Linear(in_features=128, out_features=5632, bias=True)
            )
          )
        )
        (alpha_norm): LayerNorm((64,), eps=1e-05, elementwise_affine=True)
        (alpha_act): SmoothLeakyReLU(negative_slope=0.2)
        (alpha_dropout): Dropout(p=0.1, inplace=False)
        (s2_act): SeparableS2Activation(
          (scalar_act): SiLU()
          (s2_act): S2Activation(
            (act): SiLU()
          )
        )
        (so2_conv_2): SO2_Convolution(
          (mappingReduced): CoefficientMappingModule(lmax_list=[6], mmax_list=[3])
          (fc_m0): Linear(in_features=448, out_features=896, bias=True)
          (so2_m_conv): ModuleList(
            (0): SO2_m_Convolution(
              (fc): Linear(in_features=384, out_features=1536, bias=False)
            )
            (1): SO2_m_Convolution(
              (fc): Linear(in_features=320, out_features=1280, bias=False)
            )
            (2): SO2_m_Convolution(
              (fc): Linear(in_features=256, out_features=1024, bias=False)
            )
          )
        )
        (proj): SO3_LinearV2(in_features=128, out_features=128, lmax=6)
      )
      (drop_path): GraphDropPath(drop_prob=0.1)
      (norm_2): EquivariantLayerNormArraySphericalHarmonics(lmax=6, num_channels=128, eps=1e-05, std_balance_degrees=True)
      (ffn): FeedForwardNetwork(
        (SO3_grid): (6, 6)
        (so3_linear_1): SO3_LinearV2(in_features=128, out_features=128, lmax=6)
        (scalar_mlp): Sequential(
          (0): Linear(in_features=128, out_features=128, bias=True)
          (1): SiLU()
        )
        (grid_mlp): Sequential(
          (0): Linear(in_features=128, out_features=128, bias=False)
          (1): SiLU()
          (2): Linear(in_features=128, out_features=128, bias=False)
          (3): SiLU()
          (4): Linear(in_features=128, out_features=128, bias=False)
        )
        (so3_linear_2): SO3_LinearV2(in_features=128, out_features=128, lmax=6)
      )
    )
    (2): TransBlockV2(
      (norm_1): EquivariantLayerNormArraySphericalHarmonics(lmax=6, num_channels=128, eps=1e-05, std_balance_degrees=True)
      (ga): SO2EquivariantGraphAttention(
        (SO3_rotation): ModuleList(
          (0): SO3_Rotation(
            (mapping): CoefficientMappingModule(lmax_list=[6], mmax_list=[6])
          )
        )
        (mappingReduced): CoefficientMappingModule(lmax_list=[6], mmax_list=[3])
        (SO3_grid): (6, 6)
        (source_embedding): Embedding(90, 128)
        (target_embedding): Embedding(90, 128)
        (so2_conv_1): SO2_Convolution(
          (mappingReduced): CoefficientMappingModule(lmax_list=[6], mmax_list=[3])
          (fc_m0): Linear(in_features=1792, out_features=1024, bias=True)
          (so2_m_conv): ModuleList(
            (0): SO2_m_Convolution(
              (fc): Linear(in_features=1536, out_features=768, bias=False)
            )
            (1): SO2_m_Convolution(
              (fc): Linear(in_features=1280, out_features=640, bias=False)
            )
            (2): SO2_m_Convolution(
              (fc): Linear(in_features=1024, out_features=512, bias=False)
            )
          )
          (rad_func): RadialFunction(
            (net): Sequential(
              (0): Linear(in_features=856, out_features=128, bias=True)
              (1): LayerNorm((128,), eps=1e-05, elementwise_affine=True)
              (2): SiLU()
              (3): Linear(in_features=128, out_features=128, bias=True)
              (4): LayerNorm((128,), eps=1e-05, elementwise_affine=True)
              (5): SiLU()
              (6): Linear(in_features=128, out_features=5632, bias=True)
            )
          )
        )
        (alpha_norm): LayerNorm((64,), eps=1e-05, elementwise_affine=True)
        (alpha_act): SmoothLeakyReLU(negative_slope=0.2)
        (alpha_dropout): Dropout(p=0.1, inplace=False)
        (s2_act): SeparableS2Activation(
          (scalar_act): SiLU()
          (s2_act): S2Activation(
            (act): SiLU()
          )
        )
        (so2_conv_2): SO2_Convolution(
          (mappingReduced): CoefficientMappingModule(lmax_list=[6], mmax_list=[3])
          (fc_m0): Linear(in_features=448, out_features=896, bias=True)
          (so2_m_conv): ModuleList(
            (0): SO2_m_Convolution(
              (fc): Linear(in_features=384, out_features=1536, bias=False)
            )
            (1): SO2_m_Convolution(
              (fc): Linear(in_features=320, out_features=1280, bias=False)
            )
            (2): SO2_m_Convolution(
              (fc): Linear(in_features=256, out_features=1024, bias=False)
            )
          )
        )
        (proj): SO3_LinearV2(in_features=128, out_features=128, lmax=6)
      )
      (drop_path): GraphDropPath(drop_prob=0.1)
      (norm_2): EquivariantLayerNormArraySphericalHarmonics(lmax=6, num_channels=128, eps=1e-05, std_balance_degrees=True)
      (ffn): FeedForwardNetwork(
        (SO3_grid): (6, 6)
        (so3_linear_1): SO3_LinearV2(in_features=128, out_features=128, lmax=6)
        (scalar_mlp): Sequential(
          (0): Linear(in_features=128, out_features=128, bias=True)
          (1): SiLU()
        )
        (grid_mlp): Sequential(
          (0): Linear(in_features=128, out_features=128, bias=False)
          (1): SiLU()
          (2): Linear(in_features=128, out_features=128, bias=False)
          (3): SiLU()
          (4): Linear(in_features=128, out_features=128, bias=False)
        )
        (so3_linear_2): SO3_LinearV2(in_features=128, out_features=128, lmax=6)
      )
    )
    (3): TransBlockV2(
      (norm_1): EquivariantLayerNormArraySphericalHarmonics(lmax=6, num_channels=128, eps=1e-05, std_balance_degrees=True)
      (ga): SO2EquivariantGraphAttention(
        (SO3_rotation): ModuleList(
          (0): SO3_Rotation(
            (mapping): CoefficientMappingModule(lmax_list=[6], mmax_list=[6])
          )
        )
        (mappingReduced): CoefficientMappingModule(lmax_list=[6], mmax_list=[3])
        (SO3_grid): (6, 6)
        (source_embedding): Embedding(90, 128)
        (target_embedding): Embedding(90, 128)
        (so2_conv_1): SO2_Convolution(
          (mappingReduced): CoefficientMappingModule(lmax_list=[6], mmax_list=[3])
          (fc_m0): Linear(in_features=1792, out_features=1024, bias=True)
          (so2_m_conv): ModuleList(
            (0): SO2_m_Convolution(
              (fc): Linear(in_features=1536, out_features=768, bias=False)
            )
            (1): SO2_m_Convolution(
              (fc): Linear(in_features=1280, out_features=640, bias=False)
            )
            (2): SO2_m_Convolution(
              (fc): Linear(in_features=1024, out_features=512, bias=False)
            )
          )
          (rad_func): RadialFunction(
            (net): Sequential(
              (0): Linear(in_features=856, out_features=128, bias=True)
              (1): LayerNorm((128,), eps=1e-05, elementwise_affine=True)
              (2): SiLU()
              (3): Linear(in_features=128, out_features=128, bias=True)
              (4): LayerNorm((128,), eps=1e-05, elementwise_affine=True)
              (5): SiLU()
              (6): Linear(in_features=128, out_features=5632, bias=True)
            )
          )
        )
        (alpha_norm): LayerNorm((64,), eps=1e-05, elementwise_affine=True)
        (alpha_act): SmoothLeakyReLU(negative_slope=0.2)
        (alpha_dropout): Dropout(p=0.1, inplace=False)
        (s2_act): SeparableS2Activation(
          (scalar_act): SiLU()
          (s2_act): S2Activation(
            (act): SiLU()
          )
        )
        (so2_conv_2): SO2_Convolution(
          (mappingReduced): CoefficientMappingModule(lmax_list=[6], mmax_list=[3])
          (fc_m0): Linear(in_features=448, out_features=896, bias=True)
          (so2_m_conv): ModuleList(
            (0): SO2_m_Convolution(
              (fc): Linear(in_features=384, out_features=1536, bias=False)
            )
            (1): SO2_m_Convolution(
              (fc): Linear(in_features=320, out_features=1280, bias=False)
            )
            (2): SO2_m_Convolution(
              (fc): Linear(in_features=256, out_features=1024, bias=False)
            )
          )
        )
        (proj): SO3_LinearV2(in_features=128, out_features=128, lmax=6)
      )
      (drop_path): GraphDropPath(drop_prob=0.1)
      (norm_2): EquivariantLayerNormArraySphericalHarmonics(lmax=6, num_channels=128, eps=1e-05, std_balance_degrees=True)
      (ffn): FeedForwardNetwork(
        (SO3_grid): (6, 6)
        (so3_linear_1): SO3_LinearV2(in_features=128, out_features=128, lmax=6)
        (scalar_mlp): Sequential(
          (0): Linear(in_features=128, out_features=128, bias=True)
          (1): SiLU()
        )
        (grid_mlp): Sequential(
          (0): Linear(in_features=128, out_features=128, bias=False)
          (1): SiLU()
          (2): Linear(in_features=128, out_features=128, bias=False)
          (3): SiLU()
          (4): Linear(in_features=128, out_features=128, bias=False)
        )
        (so3_linear_2): SO3_LinearV2(in_features=128, out_features=128, lmax=6)
      )
    )
    (4): TransBlockV2(
      (norm_1): EquivariantLayerNormArraySphericalHarmonics(lmax=6, num_channels=128, eps=1e-05, std_balance_degrees=True)
      (ga): SO2EquivariantGraphAttention(
        (SO3_rotation): ModuleList(
          (0): SO3_Rotation(
            (mapping): CoefficientMappingModule(lmax_list=[6], mmax_list=[6])
          )
        )
        (mappingReduced): CoefficientMappingModule(lmax_list=[6], mmax_list=[3])
        (SO3_grid): (6, 6)
        (source_embedding): Embedding(90, 128)
        (target_embedding): Embedding(90, 128)
        (so2_conv_1): SO2_Convolution(
          (mappingReduced): CoefficientMappingModule(lmax_list=[6], mmax_list=[3])
          (fc_m0): Linear(in_features=1792, out_features=1024, bias=True)
          (so2_m_conv): ModuleList(
            (0): SO2_m_Convolution(
              (fc): Linear(in_features=1536, out_features=768, bias=False)
            )
            (1): SO2_m_Convolution(
              (fc): Linear(in_features=1280, out_features=640, bias=False)
            )
            (2): SO2_m_Convolution(
              (fc): Linear(in_features=1024, out_features=512, bias=False)
            )
          )
          (rad_func): RadialFunction(
            (net): Sequential(
              (0): Linear(in_features=856, out_features=128, bias=True)
              (1): LayerNorm((128,), eps=1e-05, elementwise_affine=True)
              (2): SiLU()
              (3): Linear(in_features=128, out_features=128, bias=True)
              (4): LayerNorm((128,), eps=1e-05, elementwise_affine=True)
              (5): SiLU()
              (6): Linear(in_features=128, out_features=5632, bias=True)
            )
          )
        )
        (alpha_norm): LayerNorm((64,), eps=1e-05, elementwise_affine=True)
        (alpha_act): SmoothLeakyReLU(negative_slope=0.2)
        (alpha_dropout): Dropout(p=0.1, inplace=False)
        (s2_act): SeparableS2Activation(
          (scalar_act): SiLU()
          (s2_act): S2Activation(
            (act): SiLU()
          )
        )
        (so2_conv_2): SO2_Convolution(
          (mappingReduced): CoefficientMappingModule(lmax_list=[6], mmax_list=[3])
          (fc_m0): Linear(in_features=448, out_features=896, bias=True)
          (so2_m_conv): ModuleList(
            (0): SO2_m_Convolution(
              (fc): Linear(in_features=384, out_features=1536, bias=False)
            )
            (1): SO2_m_Convolution(
              (fc): Linear(in_features=320, out_features=1280, bias=False)
            )
            (2): SO2_m_Convolution(
              (fc): Linear(in_features=256, out_features=1024, bias=False)
            )
          )
        )
        (proj): SO3_LinearV2(in_features=128, out_features=128, lmax=6)
      )
      (drop_path): GraphDropPath(drop_prob=0.1)
      (norm_2): EquivariantLayerNormArraySphericalHarmonics(lmax=6, num_channels=128, eps=1e-05, std_balance_degrees=True)
      (ffn): FeedForwardNetwork(
        (SO3_grid): (6, 6)
        (so3_linear_1): SO3_LinearV2(in_features=128, out_features=128, lmax=6)
        (scalar_mlp): Sequential(
          (0): Linear(in_features=128, out_features=128, bias=True)
          (1): SiLU()
        )
        (grid_mlp): Sequential(
          (0): Linear(in_features=128, out_features=128, bias=False)
          (1): SiLU()
          (2): Linear(in_features=128, out_features=128, bias=False)
          (3): SiLU()
          (4): Linear(in_features=128, out_features=128, bias=False)
        )
        (so3_linear_2): SO3_LinearV2(in_features=128, out_features=128, lmax=6)
      )
    )
    (5): TransBlockV2(
      (norm_1): EquivariantLayerNormArraySphericalHarmonics(lmax=6, num_channels=128, eps=1e-05, std_balance_degrees=True)
      (ga): SO2EquivariantGraphAttention(
        (SO3_rotation): ModuleList(
          (0): SO3_Rotation(
            (mapping): CoefficientMappingModule(lmax_list=[6], mmax_list=[6])
          )
        )
        (mappingReduced): CoefficientMappingModule(lmax_list=[6], mmax_list=[3])
        (SO3_grid): (6, 6)
        (source_embedding): Embedding(90, 128)
        (target_embedding): Embedding(90, 128)
        (so2_conv_1): SO2_Convolution(
          (mappingReduced): CoefficientMappingModule(lmax_list=[6], mmax_list=[3])
          (fc_m0): Linear(in_features=1792, out_features=1024, bias=True)
          (so2_m_conv): ModuleList(
            (0): SO2_m_Convolution(
              (fc): Linear(in_features=1536, out_features=768, bias=False)
            )
            (1): SO2_m_Convolution(
              (fc): Linear(in_features=1280, out_features=640, bias=False)
            )
            (2): SO2_m_Convolution(
              (fc): Linear(in_features=1024, out_features=512, bias=False)
            )
          )
          (rad_func): RadialFunction(
            (net): Sequential(
              (0): Linear(in_features=856, out_features=128, bias=True)
              (1): LayerNorm((128,), eps=1e-05, elementwise_affine=True)
              (2): SiLU()
              (3): Linear(in_features=128, out_features=128, bias=True)
              (4): LayerNorm((128,), eps=1e-05, elementwise_affine=True)
              (5): SiLU()
              (6): Linear(in_features=128, out_features=5632, bias=True)
            )
          )
        )
        (alpha_norm): LayerNorm((64,), eps=1e-05, elementwise_affine=True)
        (alpha_act): SmoothLeakyReLU(negative_slope=0.2)
        (alpha_dropout): Dropout(p=0.1, inplace=False)
        (s2_act): SeparableS2Activation(
          (scalar_act): SiLU()
          (s2_act): S2Activation(
            (act): SiLU()
          )
        )
        (so2_conv_2): SO2_Convolution(
          (mappingReduced): CoefficientMappingModule(lmax_list=[6], mmax_list=[3])
          (fc_m0): Linear(in_features=448, out_features=896, bias=True)
          (so2_m_conv): ModuleList(
            (0): SO2_m_Convolution(
              (fc): Linear(in_features=384, out_features=1536, bias=False)
            )
            (1): SO2_m_Convolution(
              (fc): Linear(in_features=320, out_features=1280, bias=False)
            )
            (2): SO2_m_Convolution(
              (fc): Linear(in_features=256, out_features=1024, bias=False)
            )
          )
        )
        (proj): SO3_LinearV2(in_features=128, out_features=128, lmax=6)
      )
      (drop_path): GraphDropPath(drop_prob=0.1)
      (norm_2): EquivariantLayerNormArraySphericalHarmonics(lmax=6, num_channels=128, eps=1e-05, std_balance_degrees=True)
      (ffn): FeedForwardNetwork(
        (SO3_grid): (6, 6)
        (so3_linear_1): SO3_LinearV2(in_features=128, out_features=128, lmax=6)
        (scalar_mlp): Sequential(
          (0): Linear(in_features=128, out_features=128, bias=True)
          (1): SiLU()
        )
        (grid_mlp): Sequential(
          (0): Linear(in_features=128, out_features=128, bias=False)
          (1): SiLU()
          (2): Linear(in_features=128, out_features=128, bias=False)
          (3): SiLU()
          (4): Linear(in_features=128, out_features=128, bias=False)
        )
        (so3_linear_2): SO3_LinearV2(in_features=128, out_features=128, lmax=6)
      )
    )
    (6): TransBlockV2(
      (norm_1): EquivariantLayerNormArraySphericalHarmonics(lmax=6, num_channels=128, eps=1e-05, std_balance_degrees=True)
      (ga): SO2EquivariantGraphAttention(
        (SO3_rotation): ModuleList(
          (0): SO3_Rotation(
            (mapping): CoefficientMappingModule(lmax_list=[6], mmax_list=[6])
          )
        )
        (mappingReduced): CoefficientMappingModule(lmax_list=[6], mmax_list=[3])
        (SO3_grid): (6, 6)
        (source_embedding): Embedding(90, 128)
        (target_embedding): Embedding(90, 128)
        (so2_conv_1): SO2_Convolution(
          (mappingReduced): CoefficientMappingModule(lmax_list=[6], mmax_list=[3])
          (fc_m0): Linear(in_features=1792, out_features=1024, bias=True)
          (so2_m_conv): ModuleList(
            (0): SO2_m_Convolution(
              (fc): Linear(in_features=1536, out_features=768, bias=False)
            )
            (1): SO2_m_Convolution(
              (fc): Linear(in_features=1280, out_features=640, bias=False)
            )
            (2): SO2_m_Convolution(
              (fc): Linear(in_features=1024, out_features=512, bias=False)
            )
          )
          (rad_func): RadialFunction(
            (net): Sequential(
              (0): Linear(in_features=856, out_features=128, bias=True)
              (1): LayerNorm((128,), eps=1e-05, elementwise_affine=True)
              (2): SiLU()
              (3): Linear(in_features=128, out_features=128, bias=True)
              (4): LayerNorm((128,), eps=1e-05, elementwise_affine=True)
              (5): SiLU()
              (6): Linear(in_features=128, out_features=5632, bias=True)
            )
          )
        )
        (alpha_norm): LayerNorm((64,), eps=1e-05, elementwise_affine=True)
        (alpha_act): SmoothLeakyReLU(negative_slope=0.2)
        (alpha_dropout): Dropout(p=0.1, inplace=False)
        (s2_act): SeparableS2Activation(
          (scalar_act): SiLU()
          (s2_act): S2Activation(
            (act): SiLU()
          )
        )
        (so2_conv_2): SO2_Convolution(
          (mappingReduced): CoefficientMappingModule(lmax_list=[6], mmax_list=[3])
          (fc_m0): Linear(in_features=448, out_features=896, bias=True)
          (so2_m_conv): ModuleList(
            (0): SO2_m_Convolution(
              (fc): Linear(in_features=384, out_features=1536, bias=False)
            )
            (1): SO2_m_Convolution(
              (fc): Linear(in_features=320, out_features=1280, bias=False)
            )
            (2): SO2_m_Convolution(
              (fc): Linear(in_features=256, out_features=1024, bias=False)
            )
          )
        )
        (proj): SO3_LinearV2(in_features=128, out_features=128, lmax=6)
      )
      (drop_path): GraphDropPath(drop_prob=0.1)
      (norm_2): EquivariantLayerNormArraySphericalHarmonics(lmax=6, num_channels=128, eps=1e-05, std_balance_degrees=True)
      (ffn): FeedForwardNetwork(
        (SO3_grid): (6, 6)
        (so3_linear_1): SO3_LinearV2(in_features=128, out_features=128, lmax=6)
        (scalar_mlp): Sequential(
          (0): Linear(in_features=128, out_features=128, bias=True)
          (1): SiLU()
        )
        (grid_mlp): Sequential(
          (0): Linear(in_features=128, out_features=128, bias=False)
          (1): SiLU()
          (2): Linear(in_features=128, out_features=128, bias=False)
          (3): SiLU()
          (4): Linear(in_features=128, out_features=128, bias=False)
        )
        (so3_linear_2): SO3_LinearV2(in_features=128, out_features=128, lmax=6)
      )
    )
    (7): TransBlockV2(
      (norm_1): EquivariantLayerNormArraySphericalHarmonics(lmax=6, num_channels=128, eps=1e-05, std_balance_degrees=True)
      (ga): SO2EquivariantGraphAttention(
        (SO3_rotation): ModuleList(
          (0): SO3_Rotation(
            (mapping): CoefficientMappingModule(lmax_list=[6], mmax_list=[6])
          )
        )
        (mappingReduced): CoefficientMappingModule(lmax_list=[6], mmax_list=[3])
        (SO3_grid): (6, 6)
        (source_embedding): Embedding(90, 128)
        (target_embedding): Embedding(90, 128)
        (so2_conv_1): SO2_Convolution(
          (mappingReduced): CoefficientMappingModule(lmax_list=[6], mmax_list=[3])
          (fc_m0): Linear(in_features=1792, out_features=1024, bias=True)
          (so2_m_conv): ModuleList(
            (0): SO2_m_Convolution(
              (fc): Linear(in_features=1536, out_features=768, bias=False)
            )
            (1): SO2_m_Convolution(
              (fc): Linear(in_features=1280, out_features=640, bias=False)
            )
            (2): SO2_m_Convolution(
              (fc): Linear(in_features=1024, out_features=512, bias=False)
            )
          )
          (rad_func): RadialFunction(
            (net): Sequential(
              (0): Linear(in_features=856, out_features=128, bias=True)
              (1): LayerNorm((128,), eps=1e-05, elementwise_affine=True)
              (2): SiLU()
              (3): Linear(in_features=128, out_features=128, bias=True)
              (4): LayerNorm((128,), eps=1e-05, elementwise_affine=True)
              (5): SiLU()
              (6): Linear(in_features=128, out_features=5632, bias=True)
            )
          )
        )
        (alpha_norm): LayerNorm((64,), eps=1e-05, elementwise_affine=True)
        (alpha_act): SmoothLeakyReLU(negative_slope=0.2)
        (alpha_dropout): Dropout(p=0.1, inplace=False)
        (s2_act): SeparableS2Activation(
          (scalar_act): SiLU()
          (s2_act): S2Activation(
            (act): SiLU()
          )
        )
        (so2_conv_2): SO2_Convolution(
          (mappingReduced): CoefficientMappingModule(lmax_list=[6], mmax_list=[3])
          (fc_m0): Linear(in_features=448, out_features=896, bias=True)
          (so2_m_conv): ModuleList(
            (0): SO2_m_Convolution(
              (fc): Linear(in_features=384, out_features=1536, bias=False)
            )
            (1): SO2_m_Convolution(
              (fc): Linear(in_features=320, out_features=1280, bias=False)
            )
            (2): SO2_m_Convolution(
              (fc): Linear(in_features=256, out_features=1024, bias=False)
            )
          )
        )
        (proj): SO3_LinearV2(in_features=128, out_features=128, lmax=6)
      )
      (drop_path): GraphDropPath(drop_prob=0.1)
      (norm_2): EquivariantLayerNormArraySphericalHarmonics(lmax=6, num_channels=128, eps=1e-05, std_balance_degrees=True)
      (ffn): FeedForwardNetwork(
        (SO3_grid): (6, 6)
        (so3_linear_1): SO3_LinearV2(in_features=128, out_features=128, lmax=6)
        (scalar_mlp): Sequential(
          (0): Linear(in_features=128, out_features=128, bias=True)
          (1): SiLU()
        )
        (grid_mlp): Sequential(
          (0): Linear(in_features=128, out_features=128, bias=False)
          (1): SiLU()
          (2): Linear(in_features=128, out_features=128, bias=False)
          (3): SiLU()
          (4): Linear(in_features=128, out_features=128, bias=False)
        )
        (so3_linear_2): SO3_LinearV2(in_features=128, out_features=128, lmax=6)
      )
    )
    (8): TransBlockV2(
      (norm_1): EquivariantLayerNormArraySphericalHarmonics(lmax=6, num_channels=128, eps=1e-05, std_balance_degrees=True)
      (ga): SO2EquivariantGraphAttention(
        (SO3_rotation): ModuleList(
          (0): SO3_Rotation(
            (mapping): CoefficientMappingModule(lmax_list=[6], mmax_list=[6])
          )
        )
        (mappingReduced): CoefficientMappingModule(lmax_list=[6], mmax_list=[3])
        (SO3_grid): (6, 6)
        (source_embedding): Embedding(90, 128)
        (target_embedding): Embedding(90, 128)
        (so2_conv_1): SO2_Convolution(
          (mappingReduced): CoefficientMappingModule(lmax_list=[6], mmax_list=[3])
          (fc_m0): Linear(in_features=1792, out_features=1024, bias=True)
          (so2_m_conv): ModuleList(
            (0): SO2_m_Convolution(
              (fc): Linear(in_features=1536, out_features=768, bias=False)
            )
            (1): SO2_m_Convolution(
              (fc): Linear(in_features=1280, out_features=640, bias=False)
            )
            (2): SO2_m_Convolution(
              (fc): Linear(in_features=1024, out_features=512, bias=False)
            )
          )
          (rad_func): RadialFunction(
            (net): Sequential(
              (0): Linear(in_features=856, out_features=128, bias=True)
              (1): LayerNorm((128,), eps=1e-05, elementwise_affine=True)
              (2): SiLU()
              (3): Linear(in_features=128, out_features=128, bias=True)
              (4): LayerNorm((128,), eps=1e-05, elementwise_affine=True)
              (5): SiLU()
              (6): Linear(in_features=128, out_features=5632, bias=True)
            )
          )
        )
        (alpha_norm): LayerNorm((64,), eps=1e-05, elementwise_affine=True)
        (alpha_act): SmoothLeakyReLU(negative_slope=0.2)
        (alpha_dropout): Dropout(p=0.1, inplace=False)
        (s2_act): SeparableS2Activation(
          (scalar_act): SiLU()
          (s2_act): S2Activation(
            (act): SiLU()
          )
        )
        (so2_conv_2): SO2_Convolution(
          (mappingReduced): CoefficientMappingModule(lmax_list=[6], mmax_list=[3])
          (fc_m0): Linear(in_features=448, out_features=896, bias=True)
          (so2_m_conv): ModuleList(
            (0): SO2_m_Convolution(
              (fc): Linear(in_features=384, out_features=1536, bias=False)
            )
            (1): SO2_m_Convolution(
              (fc): Linear(in_features=320, out_features=1280, bias=False)
            )
            (2): SO2_m_Convolution(
              (fc): Linear(in_features=256, out_features=1024, bias=False)
            )
          )
        )
        (proj): SO3_LinearV2(in_features=128, out_features=128, lmax=6)
      )
      (drop_path): GraphDropPath(drop_prob=0.1)
      (norm_2): EquivariantLayerNormArraySphericalHarmonics(lmax=6, num_channels=128, eps=1e-05, std_balance_degrees=True)
      (ffn): FeedForwardNetwork(
        (SO3_grid): (6, 6)
        (so3_linear_1): SO3_LinearV2(in_features=128, out_features=128, lmax=6)
        (scalar_mlp): Sequential(
          (0): Linear(in_features=128, out_features=128, bias=True)
          (1): SiLU()
        )
        (grid_mlp): Sequential(
          (0): Linear(in_features=128, out_features=128, bias=False)
          (1): SiLU()
          (2): Linear(in_features=128, out_features=128, bias=False)
          (3): SiLU()
          (4): Linear(in_features=128, out_features=128, bias=False)
        )
        (so3_linear_2): SO3_LinearV2(in_features=128, out_features=128, lmax=6)
      )
    )
    (9): TransBlockV2(
      (norm_1): EquivariantLayerNormArraySphericalHarmonics(lmax=6, num_channels=128, eps=1e-05, std_balance_degrees=True)
      (ga): SO2EquivariantGraphAttention(
        (SO3_rotation): ModuleList(
          (0): SO3_Rotation(
            (mapping): CoefficientMappingModule(lmax_list=[6], mmax_list=[6])
          )
        )
        (mappingReduced): CoefficientMappingModule(lmax_list=[6], mmax_list=[3])
        (SO3_grid): (6, 6)
        (source_embedding): Embedding(90, 128)
        (target_embedding): Embedding(90, 128)
        (so2_conv_1): SO2_Convolution(
          (mappingReduced): CoefficientMappingModule(lmax_list=[6], mmax_list=[3])
          (fc_m0): Linear(in_features=1792, out_features=1024, bias=True)
          (so2_m_conv): ModuleList(
            (0): SO2_m_Convolution(
              (fc): Linear(in_features=1536, out_features=768, bias=False)
            )
            (1): SO2_m_Convolution(
              (fc): Linear(in_features=1280, out_features=640, bias=False)
            )
            (2): SO2_m_Convolution(
              (fc): Linear(in_features=1024, out_features=512, bias=False)
            )
          )
          (rad_func): RadialFunction(
            (net): Sequential(
              (0): Linear(in_features=856, out_features=128, bias=True)
              (1): LayerNorm((128,), eps=1e-05, elementwise_affine=True)
              (2): SiLU()
              (3): Linear(in_features=128, out_features=128, bias=True)
              (4): LayerNorm((128,), eps=1e-05, elementwise_affine=True)
              (5): SiLU()
              (6): Linear(in_features=128, out_features=5632, bias=True)
            )
          )
        )
        (alpha_norm): LayerNorm((64,), eps=1e-05, elementwise_affine=True)
        (alpha_act): SmoothLeakyReLU(negative_slope=0.2)
        (alpha_dropout): Dropout(p=0.1, inplace=False)
        (s2_act): SeparableS2Activation(
          (scalar_act): SiLU()
          (s2_act): S2Activation(
            (act): SiLU()
          )
        )
        (so2_conv_2): SO2_Convolution(
          (mappingReduced): CoefficientMappingModule(lmax_list=[6], mmax_list=[3])
          (fc_m0): Linear(in_features=448, out_features=896, bias=True)
          (so2_m_conv): ModuleList(
            (0): SO2_m_Convolution(
              (fc): Linear(in_features=384, out_features=1536, bias=False)
            )
            (1): SO2_m_Convolution(
              (fc): Linear(in_features=320, out_features=1280, bias=False)
            )
            (2): SO2_m_Convolution(
              (fc): Linear(in_features=256, out_features=1024, bias=False)
            )
          )
        )
        (proj): SO3_LinearV2(in_features=128, out_features=128, lmax=6)
      )
      (drop_path): GraphDropPath(drop_prob=0.1)
      (norm_2): EquivariantLayerNormArraySphericalHarmonics(lmax=6, num_channels=128, eps=1e-05, std_balance_degrees=True)
      (ffn): FeedForwardNetwork(
        (SO3_grid): (6, 6)
        (so3_linear_1): SO3_LinearV2(in_features=128, out_features=128, lmax=6)
        (scalar_mlp): Sequential(
          (0): Linear(in_features=128, out_features=128, bias=True)
          (1): SiLU()
        )
        (grid_mlp): Sequential(
          (0): Linear(in_features=128, out_features=128, bias=False)
          (1): SiLU()
          (2): Linear(in_features=128, out_features=128, bias=False)
          (3): SiLU()
          (4): Linear(in_features=128, out_features=128, bias=False)
        )
        (so3_linear_2): SO3_LinearV2(in_features=128, out_features=128, lmax=6)
      )
    )
    (10): TransBlockV2(
      (norm_1): EquivariantLayerNormArraySphericalHarmonics(lmax=6, num_channels=128, eps=1e-05, std_balance_degrees=True)
      (ga): SO2EquivariantGraphAttention(
        (SO3_rotation): ModuleList(
          (0): SO3_Rotation(
            (mapping): CoefficientMappingModule(lmax_list=[6], mmax_list=[6])
          )
        )
        (mappingReduced): CoefficientMappingModule(lmax_list=[6], mmax_list=[3])
        (SO3_grid): (6, 6)
        (source_embedding): Embedding(90, 128)
        (target_embedding): Embedding(90, 128)
        (so2_conv_1): SO2_Convolution(
          (mappingReduced): CoefficientMappingModule(lmax_list=[6], mmax_list=[3])
          (fc_m0): Linear(in_features=1792, out_features=1024, bias=True)
          (so2_m_conv): ModuleList(
            (0): SO2_m_Convolution(
              (fc): Linear(in_features=1536, out_features=768, bias=False)
            )
            (1): SO2_m_Convolution(
              (fc): Linear(in_features=1280, out_features=640, bias=False)
            )
            (2): SO2_m_Convolution(
              (fc): Linear(in_features=1024, out_features=512, bias=False)
            )
          )
          (rad_func): RadialFunction(
            (net): Sequential(
              (0): Linear(in_features=856, out_features=128, bias=True)
              (1): LayerNorm((128,), eps=1e-05, elementwise_affine=True)
              (2): SiLU()
              (3): Linear(in_features=128, out_features=128, bias=True)
              (4): LayerNorm((128,), eps=1e-05, elementwise_affine=True)
              (5): SiLU()
              (6): Linear(in_features=128, out_features=5632, bias=True)
            )
          )
        )
        (alpha_norm): LayerNorm((64,), eps=1e-05, elementwise_affine=True)
        (alpha_act): SmoothLeakyReLU(negative_slope=0.2)
        (alpha_dropout): Dropout(p=0.1, inplace=False)
        (s2_act): SeparableS2Activation(
          (scalar_act): SiLU()
          (s2_act): S2Activation(
            (act): SiLU()
          )
        )
        (so2_conv_2): SO2_Convolution(
          (mappingReduced): CoefficientMappingModule(lmax_list=[6], mmax_list=[3])
          (fc_m0): Linear(in_features=448, out_features=896, bias=True)
          (so2_m_conv): ModuleList(
            (0): SO2_m_Convolution(
              (fc): Linear(in_features=384, out_features=1536, bias=False)
            )
            (1): SO2_m_Convolution(
              (fc): Linear(in_features=320, out_features=1280, bias=False)
            )
            (2): SO2_m_Convolution(
              (fc): Linear(in_features=256, out_features=1024, bias=False)
            )
          )
        )
        (proj): SO3_LinearV2(in_features=128, out_features=128, lmax=6)
      )
      (drop_path): GraphDropPath(drop_prob=0.1)
      (norm_2): EquivariantLayerNormArraySphericalHarmonics(lmax=6, num_channels=128, eps=1e-05, std_balance_degrees=True)
      (ffn): FeedForwardNetwork(
        (SO3_grid): (6, 6)
        (so3_linear_1): SO3_LinearV2(in_features=128, out_features=128, lmax=6)
        (scalar_mlp): Sequential(
          (0): Linear(in_features=128, out_features=128, bias=True)
          (1): SiLU()
        )
        (grid_mlp): Sequential(
          (0): Linear(in_features=128, out_features=128, bias=False)
          (1): SiLU()
          (2): Linear(in_features=128, out_features=128, bias=False)
          (3): SiLU()
          (4): Linear(in_features=128, out_features=128, bias=False)
        )
        (so3_linear_2): SO3_LinearV2(in_features=128, out_features=128, lmax=6)
      )
    )
    (11): TransBlockV2(
      (norm_1): EquivariantLayerNormArraySphericalHarmonics(lmax=6, num_channels=128, eps=1e-05, std_balance_degrees=True)
      (ga): SO2EquivariantGraphAttention(
        (SO3_rotation): ModuleList(
          (0): SO3_Rotation(
            (mapping): CoefficientMappingModule(lmax_list=[6], mmax_list=[6])
          )
        )
        (mappingReduced): CoefficientMappingModule(lmax_list=[6], mmax_list=[3])
        (SO3_grid): (6, 6)
        (source_embedding): Embedding(90, 128)
        (target_embedding): Embedding(90, 128)
        (so2_conv_1): SO2_Convolution(
          (mappingReduced): CoefficientMappingModule(lmax_list=[6], mmax_list=[3])
          (fc_m0): Linear(in_features=1792, out_features=1024, bias=True)
          (so2_m_conv): ModuleList(
            (0): SO2_m_Convolution(
              (fc): Linear(in_features=1536, out_features=768, bias=False)
            )
            (1): SO2_m_Convolution(
              (fc): Linear(in_features=1280, out_features=640, bias=False)
            )
            (2): SO2_m_Convolution(
              (fc): Linear(in_features=1024, out_features=512, bias=False)
            )
          )
          (rad_func): RadialFunction(
            (net): Sequential(
              (0): Linear(in_features=856, out_features=128, bias=True)
              (1): LayerNorm((128,), eps=1e-05, elementwise_affine=True)
              (2): SiLU()
              (3): Linear(in_features=128, out_features=128, bias=True)
              (4): LayerNorm((128,), eps=1e-05, elementwise_affine=True)
              (5): SiLU()
              (6): Linear(in_features=128, out_features=5632, bias=True)
            )
          )
        )
        (alpha_norm): LayerNorm((64,), eps=1e-05, elementwise_affine=True)
        (alpha_act): SmoothLeakyReLU(negative_slope=0.2)
        (alpha_dropout): Dropout(p=0.1, inplace=False)
        (s2_act): SeparableS2Activation(
          (scalar_act): SiLU()
          (s2_act): S2Activation(
            (act): SiLU()
          )
        )
        (so2_conv_2): SO2_Convolution(
          (mappingReduced): CoefficientMappingModule(lmax_list=[6], mmax_list=[3])
          (fc_m0): Linear(in_features=448, out_features=896, bias=True)
          (so2_m_conv): ModuleList(
            (0): SO2_m_Convolution(
              (fc): Linear(in_features=384, out_features=1536, bias=False)
            )
            (1): SO2_m_Convolution(
              (fc): Linear(in_features=320, out_features=1280, bias=False)
            )
            (2): SO2_m_Convolution(
              (fc): Linear(in_features=256, out_features=1024, bias=False)
            )
          )
        )
        (proj): SO3_LinearV2(in_features=128, out_features=128, lmax=6)
      )
      (drop_path): GraphDropPath(drop_prob=0.1)
      (norm_2): EquivariantLayerNormArraySphericalHarmonics(lmax=6, num_channels=128, eps=1e-05, std_balance_degrees=True)
      (ffn): FeedForwardNetwork(
        (SO3_grid): (6, 6)
        (so3_linear_1): SO3_LinearV2(in_features=128, out_features=128, lmax=6)
        (scalar_mlp): Sequential(
          (0): Linear(in_features=128, out_features=128, bias=True)
          (1): SiLU()
        )
        (grid_mlp): Sequential(
          (0): Linear(in_features=128, out_features=128, bias=False)
          (1): SiLU()
          (2): Linear(in_features=128, out_features=128, bias=False)
          (3): SiLU()
          (4): Linear(in_features=128, out_features=128, bias=False)
        )
        (so3_linear_2): SO3_LinearV2(in_features=128, out_features=128, lmax=6)
      )
    )
    (12): TransBlockV2(
      (norm_1): EquivariantLayerNormArraySphericalHarmonics(lmax=6, num_channels=128, eps=1e-05, std_balance_degrees=True)
      (ga): SO2EquivariantGraphAttention(
        (SO3_rotation): ModuleList(
          (0): SO3_Rotation(
            (mapping): CoefficientMappingModule(lmax_list=[6], mmax_list=[6])
          )
        )
        (mappingReduced): CoefficientMappingModule(lmax_list=[6], mmax_list=[3])
        (SO3_grid): (6, 6)
        (source_embedding): Embedding(90, 128)
        (target_embedding): Embedding(90, 128)
        (so2_conv_1): SO2_Convolution(
          (mappingReduced): CoefficientMappingModule(lmax_list=[6], mmax_list=[3])
          (fc_m0): Linear(in_features=1792, out_features=1024, bias=True)
          (so2_m_conv): ModuleList(
            (0): SO2_m_Convolution(
              (fc): Linear(in_features=1536, out_features=768, bias=False)
            )
            (1): SO2_m_Convolution(
              (fc): Linear(in_features=1280, out_features=640, bias=False)
            )
            (2): SO2_m_Convolution(
              (fc): Linear(in_features=1024, out_features=512, bias=False)
            )
          )
          (rad_func): RadialFunction(
            (net): Sequential(
              (0): Linear(in_features=856, out_features=128, bias=True)
              (1): LayerNorm((128,), eps=1e-05, elementwise_affine=True)
              (2): SiLU()
              (3): Linear(in_features=128, out_features=128, bias=True)
              (4): LayerNorm((128,), eps=1e-05, elementwise_affine=True)
              (5): SiLU()
              (6): Linear(in_features=128, out_features=5632, bias=True)
            )
          )
        )
        (alpha_norm): LayerNorm((64,), eps=1e-05, elementwise_affine=True)
        (alpha_act): SmoothLeakyReLU(negative_slope=0.2)
        (alpha_dropout): Dropout(p=0.1, inplace=False)
        (s2_act): SeparableS2Activation(
          (scalar_act): SiLU()
          (s2_act): S2Activation(
            (act): SiLU()
          )
        )
        (so2_conv_2): SO2_Convolution(
          (mappingReduced): CoefficientMappingModule(lmax_list=[6], mmax_list=[3])
          (fc_m0): Linear(in_features=448, out_features=896, bias=True)
          (so2_m_conv): ModuleList(
            (0): SO2_m_Convolution(
              (fc): Linear(in_features=384, out_features=1536, bias=False)
            )
            (1): SO2_m_Convolution(
              (fc): Linear(in_features=320, out_features=1280, bias=False)
            )
            (2): SO2_m_Convolution(
              (fc): Linear(in_features=256, out_features=1024, bias=False)
            )
          )
        )
        (proj): SO3_LinearV2(in_features=128, out_features=128, lmax=6)
      )
      (drop_path): GraphDropPath(drop_prob=0.1)
      (norm_2): EquivariantLayerNormArraySphericalHarmonics(lmax=6, num_channels=128, eps=1e-05, std_balance_degrees=True)
      (ffn): FeedForwardNetwork(
        (SO3_grid): (6, 6)
        (so3_linear_1): SO3_LinearV2(in_features=128, out_features=128, lmax=6)
        (scalar_mlp): Sequential(
          (0): Linear(in_features=128, out_features=128, bias=True)
          (1): SiLU()
        )
        (grid_mlp): Sequential(
          (0): Linear(in_features=128, out_features=128, bias=False)
          (1): SiLU()
          (2): Linear(in_features=128, out_features=128, bias=False)
          (3): SiLU()
          (4): Linear(in_features=128, out_features=128, bias=False)
        )
        (so3_linear_2): SO3_LinearV2(in_features=128, out_features=128, lmax=6)
      )
    )
    (13): TransBlockV2(
      (norm_1): EquivariantLayerNormArraySphericalHarmonics(lmax=6, num_channels=128, eps=1e-05, std_balance_degrees=True)
      (ga): SO2EquivariantGraphAttention(
        (SO3_rotation): ModuleList(
          (0): SO3_Rotation(
            (mapping): CoefficientMappingModule(lmax_list=[6], mmax_list=[6])
          )
        )
        (mappingReduced): CoefficientMappingModule(lmax_list=[6], mmax_list=[3])
        (SO3_grid): (6, 6)
        (source_embedding): Embedding(90, 128)
        (target_embedding): Embedding(90, 128)
        (so2_conv_1): SO2_Convolution(
          (mappingReduced): CoefficientMappingModule(lmax_list=[6], mmax_list=[3])
          (fc_m0): Linear(in_features=1792, out_features=1024, bias=True)
          (so2_m_conv): ModuleList(
            (0): SO2_m_Convolution(
              (fc): Linear(in_features=1536, out_features=768, bias=False)
            )
            (1): SO2_m_Convolution(
              (fc): Linear(in_features=1280, out_features=640, bias=False)
            )
            (2): SO2_m_Convolution(
              (fc): Linear(in_features=1024, out_features=512, bias=False)
            )
          )
          (rad_func): RadialFunction(
            (net): Sequential(
              (0): Linear(in_features=856, out_features=128, bias=True)
              (1): LayerNorm((128,), eps=1e-05, elementwise_affine=True)
              (2): SiLU()
              (3): Linear(in_features=128, out_features=128, bias=True)
              (4): LayerNorm((128,), eps=1e-05, elementwise_affine=True)
              (5): SiLU()
              (6): Linear(in_features=128, out_features=5632, bias=True)
            )
          )
        )
        (alpha_norm): LayerNorm((64,), eps=1e-05, elementwise_affine=True)
        (alpha_act): SmoothLeakyReLU(negative_slope=0.2)
        (alpha_dropout): Dropout(p=0.1, inplace=False)
        (s2_act): SeparableS2Activation(
          (scalar_act): SiLU()
          (s2_act): S2Activation(
            (act): SiLU()
          )
        )
        (so2_conv_2): SO2_Convolution(
          (mappingReduced): CoefficientMappingModule(lmax_list=[6], mmax_list=[3])
          (fc_m0): Linear(in_features=448, out_features=896, bias=True)
          (so2_m_conv): ModuleList(
            (0): SO2_m_Convolution(
              (fc): Linear(in_features=384, out_features=1536, bias=False)
            )
            (1): SO2_m_Convolution(
              (fc): Linear(in_features=320, out_features=1280, bias=False)
            )
            (2): SO2_m_Convolution(
              (fc): Linear(in_features=256, out_features=1024, bias=False)
            )
          )
        )
        (proj): SO3_LinearV2(in_features=128, out_features=128, lmax=6)
      )
      (drop_path): GraphDropPath(drop_prob=0.1)
      (norm_2): EquivariantLayerNormArraySphericalHarmonics(lmax=6, num_channels=128, eps=1e-05, std_balance_degrees=True)
      (ffn): FeedForwardNetwork(
        (SO3_grid): (6, 6)
        (so3_linear_1): SO3_LinearV2(in_features=128, out_features=128, lmax=6)
        (scalar_mlp): Sequential(
          (0): Linear(in_features=128, out_features=128, bias=True)
          (1): SiLU()
        )
        (grid_mlp): Sequential(
          (0): Linear(in_features=128, out_features=128, bias=False)
          (1): SiLU()
          (2): Linear(in_features=128, out_features=128, bias=False)
          (3): SiLU()
          (4): Linear(in_features=128, out_features=128, bias=False)
        )
        (so3_linear_2): SO3_LinearV2(in_features=128, out_features=128, lmax=6)
      )
    )
    (14): TransBlockV2(
      (norm_1): EquivariantLayerNormArraySphericalHarmonics(lmax=6, num_channels=128, eps=1e-05, std_balance_degrees=True)
      (ga): SO2EquivariantGraphAttention(
        (SO3_rotation): ModuleList(
          (0): SO3_Rotation(
            (mapping): CoefficientMappingModule(lmax_list=[6], mmax_list=[6])
          )
        )
        (mappingReduced): CoefficientMappingModule(lmax_list=[6], mmax_list=[3])
        (SO3_grid): (6, 6)
        (source_embedding): Embedding(90, 128)
        (target_embedding): Embedding(90, 128)
        (so2_conv_1): SO2_Convolution(
          (mappingReduced): CoefficientMappingModule(lmax_list=[6], mmax_list=[3])
          (fc_m0): Linear(in_features=1792, out_features=1024, bias=True)
          (so2_m_conv): ModuleList(
            (0): SO2_m_Convolution(
              (fc): Linear(in_features=1536, out_features=768, bias=False)
            )
            (1): SO2_m_Convolution(
              (fc): Linear(in_features=1280, out_features=640, bias=False)
            )
            (2): SO2_m_Convolution(
              (fc): Linear(in_features=1024, out_features=512, bias=False)
            )
          )
          (rad_func): RadialFunction(
            (net): Sequential(
              (0): Linear(in_features=856, out_features=128, bias=True)
              (1): LayerNorm((128,), eps=1e-05, elementwise_affine=True)
              (2): SiLU()
              (3): Linear(in_features=128, out_features=128, bias=True)
              (4): LayerNorm((128,), eps=1e-05, elementwise_affine=True)
              (5): SiLU()
              (6): Linear(in_features=128, out_features=5632, bias=True)
            )
          )
        )
        (alpha_norm): LayerNorm((64,), eps=1e-05, elementwise_affine=True)
        (alpha_act): SmoothLeakyReLU(negative_slope=0.2)
        (alpha_dropout): Dropout(p=0.1, inplace=False)
        (s2_act): SeparableS2Activation(
          (scalar_act): SiLU()
          (s2_act): S2Activation(
            (act): SiLU()
          )
        )
        (so2_conv_2): SO2_Convolution(
          (mappingReduced): CoefficientMappingModule(lmax_list=[6], mmax_list=[3])
          (fc_m0): Linear(in_features=448, out_features=896, bias=True)
          (so2_m_conv): ModuleList(
            (0): SO2_m_Convolution(
              (fc): Linear(in_features=384, out_features=1536, bias=False)
            )
            (1): SO2_m_Convolution(
              (fc): Linear(in_features=320, out_features=1280, bias=False)
            )
            (2): SO2_m_Convolution(
              (fc): Linear(in_features=256, out_features=1024, bias=False)
            )
          )
        )
        (proj): SO3_LinearV2(in_features=128, out_features=128, lmax=6)
      )
      (drop_path): GraphDropPath(drop_prob=0.1)
      (norm_2): EquivariantLayerNormArraySphericalHarmonics(lmax=6, num_channels=128, eps=1e-05, std_balance_degrees=True)
      (ffn): FeedForwardNetwork(
        (SO3_grid): (6, 6)
        (so3_linear_1): SO3_LinearV2(in_features=128, out_features=128, lmax=6)
        (scalar_mlp): Sequential(
          (0): Linear(in_features=128, out_features=128, bias=True)
          (1): SiLU()
        )
        (grid_mlp): Sequential(
          (0): Linear(in_features=128, out_features=128, bias=False)
          (1): SiLU()
          (2): Linear(in_features=128, out_features=128, bias=False)
          (3): SiLU()
          (4): Linear(in_features=128, out_features=128, bias=False)
        )
        (so3_linear_2): SO3_LinearV2(in_features=128, out_features=128, lmax=6)
      )
    )
    (15): TransBlockV2(
      (norm_1): EquivariantLayerNormArraySphericalHarmonics(lmax=6, num_channels=128, eps=1e-05, std_balance_degrees=True)
      (ga): SO2EquivariantGraphAttention(
        (SO3_rotation): ModuleList(
          (0): SO3_Rotation(
            (mapping): CoefficientMappingModule(lmax_list=[6], mmax_list=[6])
          )
        )
        (mappingReduced): CoefficientMappingModule(lmax_list=[6], mmax_list=[3])
        (SO3_grid): (6, 6)
        (source_embedding): Embedding(90, 128)
        (target_embedding): Embedding(90, 128)
        (so2_conv_1): SO2_Convolution(
          (mappingReduced): CoefficientMappingModule(lmax_list=[6], mmax_list=[3])
          (fc_m0): Linear(in_features=1792, out_features=1024, bias=True)
          (so2_m_conv): ModuleList(
            (0): SO2_m_Convolution(
              (fc): Linear(in_features=1536, out_features=768, bias=False)
            )
            (1): SO2_m_Convolution(
              (fc): Linear(in_features=1280, out_features=640, bias=False)
            )
            (2): SO2_m_Convolution(
              (fc): Linear(in_features=1024, out_features=512, bias=False)
            )
          )
          (rad_func): RadialFunction(
            (net): Sequential(
              (0): Linear(in_features=856, out_features=128, bias=True)
              (1): LayerNorm((128,), eps=1e-05, elementwise_affine=True)
              (2): SiLU()
              (3): Linear(in_features=128, out_features=128, bias=True)
              (4): LayerNorm((128,), eps=1e-05, elementwise_affine=True)
              (5): SiLU()
              (6): Linear(in_features=128, out_features=5632, bias=True)
            )
          )
        )
        (alpha_norm): LayerNorm((64,), eps=1e-05, elementwise_affine=True)
        (alpha_act): SmoothLeakyReLU(negative_slope=0.2)
        (alpha_dropout): Dropout(p=0.1, inplace=False)
        (s2_act): SeparableS2Activation(
          (scalar_act): SiLU()
          (s2_act): S2Activation(
            (act): SiLU()
          )
        )
        (so2_conv_2): SO2_Convolution(
          (mappingReduced): CoefficientMappingModule(lmax_list=[6], mmax_list=[3])
          (fc_m0): Linear(in_features=448, out_features=896, bias=True)
          (so2_m_conv): ModuleList(
            (0): SO2_m_Convolution(
              (fc): Linear(in_features=384, out_features=1536, bias=False)
            )
            (1): SO2_m_Convolution(
              (fc): Linear(in_features=320, out_features=1280, bias=False)
            )
            (2): SO2_m_Convolution(
              (fc): Linear(in_features=256, out_features=1024, bias=False)
            )
          )
        )
        (proj): SO3_LinearV2(in_features=128, out_features=128, lmax=6)
      )
      (drop_path): GraphDropPath(drop_prob=0.1)
      (norm_2): EquivariantLayerNormArraySphericalHarmonics(lmax=6, num_channels=128, eps=1e-05, std_balance_degrees=True)
      (ffn): FeedForwardNetwork(
        (SO3_grid): (6, 6)
        (so3_linear_1): SO3_LinearV2(in_features=128, out_features=128, lmax=6)
        (scalar_mlp): Sequential(
          (0): Linear(in_features=128, out_features=128, bias=True)
          (1): SiLU()
        )
        (grid_mlp): Sequential(
          (0): Linear(in_features=128, out_features=128, bias=False)
          (1): SiLU()
          (2): Linear(in_features=128, out_features=128, bias=False)
          (3): SiLU()
          (4): Linear(in_features=128, out_features=128, bias=False)
        )
        (so3_linear_2): SO3_LinearV2(in_features=128, out_features=128, lmax=6)
      )
    )
    (16): TransBlockV2(
      (norm_1): EquivariantLayerNormArraySphericalHarmonics(lmax=6, num_channels=128, eps=1e-05, std_balance_degrees=True)
      (ga): SO2EquivariantGraphAttention(
        (SO3_rotation): ModuleList(
          (0): SO3_Rotation(
            (mapping): CoefficientMappingModule(lmax_list=[6], mmax_list=[6])
          )
        )
        (mappingReduced): CoefficientMappingModule(lmax_list=[6], mmax_list=[3])
        (SO3_grid): (6, 6)
        (source_embedding): Embedding(90, 128)
        (target_embedding): Embedding(90, 128)
        (so2_conv_1): SO2_Convolution(
          (mappingReduced): CoefficientMappingModule(lmax_list=[6], mmax_list=[3])
          (fc_m0): Linear(in_features=1792, out_features=1024, bias=True)
          (so2_m_conv): ModuleList(
            (0): SO2_m_Convolution(
              (fc): Linear(in_features=1536, out_features=768, bias=False)
            )
            (1): SO2_m_Convolution(
              (fc): Linear(in_features=1280, out_features=640, bias=False)
            )
            (2): SO2_m_Convolution(
              (fc): Linear(in_features=1024, out_features=512, bias=False)
            )
          )
          (rad_func): RadialFunction(
            (net): Sequential(
              (0): Linear(in_features=856, out_features=128, bias=True)
              (1): LayerNorm((128,), eps=1e-05, elementwise_affine=True)
              (2): SiLU()
              (3): Linear(in_features=128, out_features=128, bias=True)
              (4): LayerNorm((128,), eps=1e-05, elementwise_affine=True)
              (5): SiLU()
              (6): Linear(in_features=128, out_features=5632, bias=True)
            )
          )
        )
        (alpha_norm): LayerNorm((64,), eps=1e-05, elementwise_affine=True)
        (alpha_act): SmoothLeakyReLU(negative_slope=0.2)
        (alpha_dropout): Dropout(p=0.1, inplace=False)
        (s2_act): SeparableS2Activation(
          (scalar_act): SiLU()
          (s2_act): S2Activation(
            (act): SiLU()
          )
        )
        (so2_conv_2): SO2_Convolution(
          (mappingReduced): CoefficientMappingModule(lmax_list=[6], mmax_list=[3])
          (fc_m0): Linear(in_features=448, out_features=896, bias=True)
          (so2_m_conv): ModuleList(
            (0): SO2_m_Convolution(
              (fc): Linear(in_features=384, out_features=1536, bias=False)
            )
            (1): SO2_m_Convolution(
              (fc): Linear(in_features=320, out_features=1280, bias=False)
            )
            (2): SO2_m_Convolution(
              (fc): Linear(in_features=256, out_features=1024, bias=False)
            )
          )
        )
        (proj): SO3_LinearV2(in_features=128, out_features=128, lmax=6)
      )
      (drop_path): GraphDropPath(drop_prob=0.1)
      (norm_2): EquivariantLayerNormArraySphericalHarmonics(lmax=6, num_channels=128, eps=1e-05, std_balance_degrees=True)
      (ffn): FeedForwardNetwork(
        (SO3_grid): (6, 6)
        (so3_linear_1): SO3_LinearV2(in_features=128, out_features=128, lmax=6)
        (scalar_mlp): Sequential(
          (0): Linear(in_features=128, out_features=128, bias=True)
          (1): SiLU()
        )
        (grid_mlp): Sequential(
          (0): Linear(in_features=128, out_features=128, bias=False)
          (1): SiLU()
          (2): Linear(in_features=128, out_features=128, bias=False)
          (3): SiLU()
          (4): Linear(in_features=128, out_features=128, bias=False)
        )
        (so3_linear_2): SO3_LinearV2(in_features=128, out_features=128, lmax=6)
      )
    )
    (17): TransBlockV2(
      (norm_1): EquivariantLayerNormArraySphericalHarmonics(lmax=6, num_channels=128, eps=1e-05, std_balance_degrees=True)
      (ga): SO2EquivariantGraphAttention(
        (SO3_rotation): ModuleList(
          (0): SO3_Rotation(
            (mapping): CoefficientMappingModule(lmax_list=[6], mmax_list=[6])
          )
        )
        (mappingReduced): CoefficientMappingModule(lmax_list=[6], mmax_list=[3])
        (SO3_grid): (6, 6)
        (source_embedding): Embedding(90, 128)
        (target_embedding): Embedding(90, 128)
        (so2_conv_1): SO2_Convolution(
          (mappingReduced): CoefficientMappingModule(lmax_list=[6], mmax_list=[3])
          (fc_m0): Linear(in_features=1792, out_features=1024, bias=True)
          (so2_m_conv): ModuleList(
            (0): SO2_m_Convolution(
              (fc): Linear(in_features=1536, out_features=768, bias=False)
            )
            (1): SO2_m_Convolution(
              (fc): Linear(in_features=1280, out_features=640, bias=False)
            )
            (2): SO2_m_Convolution(
              (fc): Linear(in_features=1024, out_features=512, bias=False)
            )
          )
          (rad_func): RadialFunction(
            (net): Sequential(
              (0): Linear(in_features=856, out_features=128, bias=True)
              (1): LayerNorm((128,), eps=1e-05, elementwise_affine=True)
              (2): SiLU()
              (3): Linear(in_features=128, out_features=128, bias=True)
              (4): LayerNorm((128,), eps=1e-05, elementwise_affine=True)
              (5): SiLU()
              (6): Linear(in_features=128, out_features=5632, bias=True)
            )
          )
        )
        (alpha_norm): LayerNorm((64,), eps=1e-05, elementwise_affine=True)
        (alpha_act): SmoothLeakyReLU(negative_slope=0.2)
        (alpha_dropout): Dropout(p=0.1, inplace=False)
        (s2_act): SeparableS2Activation(
          (scalar_act): SiLU()
          (s2_act): S2Activation(
            (act): SiLU()
          )
        )
        (so2_conv_2): SO2_Convolution(
          (mappingReduced): CoefficientMappingModule(lmax_list=[6], mmax_list=[3])
          (fc_m0): Linear(in_features=448, out_features=896, bias=True)
          (so2_m_conv): ModuleList(
            (0): SO2_m_Convolution(
              (fc): Linear(in_features=384, out_features=1536, bias=False)
            )
            (1): SO2_m_Convolution(
              (fc): Linear(in_features=320, out_features=1280, bias=False)
            )
            (2): SO2_m_Convolution(
              (fc): Linear(in_features=256, out_features=1024, bias=False)
            )
          )
        )
        (proj): SO3_LinearV2(in_features=128, out_features=128, lmax=6)
      )
      (drop_path): GraphDropPath(drop_prob=0.1)
      (norm_2): EquivariantLayerNormArraySphericalHarmonics(lmax=6, num_channels=128, eps=1e-05, std_balance_degrees=True)
      (ffn): FeedForwardNetwork(
        (SO3_grid): (6, 6)
        (so3_linear_1): SO3_LinearV2(in_features=128, out_features=128, lmax=6)
        (scalar_mlp): Sequential(
          (0): Linear(in_features=128, out_features=128, bias=True)
          (1): SiLU()
        )
        (grid_mlp): Sequential(
          (0): Linear(in_features=128, out_features=128, bias=False)
          (1): SiLU()
          (2): Linear(in_features=128, out_features=128, bias=False)
          (3): SiLU()
          (4): Linear(in_features=128, out_features=128, bias=False)
        )
        (so3_linear_2): SO3_LinearV2(in_features=128, out_features=128, lmax=6)
      )
    )
    (18): TransBlockV2(
      (norm_1): EquivariantLayerNormArraySphericalHarmonics(lmax=6, num_channels=128, eps=1e-05, std_balance_degrees=True)
      (ga): SO2EquivariantGraphAttention(
        (SO3_rotation): ModuleList(
          (0): SO3_Rotation(
            (mapping): CoefficientMappingModule(lmax_list=[6], mmax_list=[6])
          )
        )
        (mappingReduced): CoefficientMappingModule(lmax_list=[6], mmax_list=[3])
        (SO3_grid): (6, 6)
        (source_embedding): Embedding(90, 128)
        (target_embedding): Embedding(90, 128)
        (so2_conv_1): SO2_Convolution(
          (mappingReduced): CoefficientMappingModule(lmax_list=[6], mmax_list=[3])
          (fc_m0): Linear(in_features=1792, out_features=1024, bias=True)
          (so2_m_conv): ModuleList(
            (0): SO2_m_Convolution(
              (fc): Linear(in_features=1536, out_features=768, bias=False)
            )
            (1): SO2_m_Convolution(
              (fc): Linear(in_features=1280, out_features=640, bias=False)
            )
            (2): SO2_m_Convolution(
              (fc): Linear(in_features=1024, out_features=512, bias=False)
            )
          )
          (rad_func): RadialFunction(
            (net): Sequential(
              (0): Linear(in_features=856, out_features=128, bias=True)
              (1): LayerNorm((128,), eps=1e-05, elementwise_affine=True)
              (2): SiLU()
              (3): Linear(in_features=128, out_features=128, bias=True)
              (4): LayerNorm((128,), eps=1e-05, elementwise_affine=True)
              (5): SiLU()
              (6): Linear(in_features=128, out_features=5632, bias=True)
            )
          )
        )
        (alpha_norm): LayerNorm((64,), eps=1e-05, elementwise_affine=True)
        (alpha_act): SmoothLeakyReLU(negative_slope=0.2)
        (alpha_dropout): Dropout(p=0.1, inplace=False)
        (s2_act): SeparableS2Activation(
          (scalar_act): SiLU()
          (s2_act): S2Activation(
            (act): SiLU()
          )
        )
        (so2_conv_2): SO2_Convolution(
          (mappingReduced): CoefficientMappingModule(lmax_list=[6], mmax_list=[3])
          (fc_m0): Linear(in_features=448, out_features=896, bias=True)
          (so2_m_conv): ModuleList(
            (0): SO2_m_Convolution(
              (fc): Linear(in_features=384, out_features=1536, bias=False)
            )
            (1): SO2_m_Convolution(
              (fc): Linear(in_features=320, out_features=1280, bias=False)
            )
            (2): SO2_m_Convolution(
              (fc): Linear(in_features=256, out_features=1024, bias=False)
            )
          )
        )
        (proj): SO3_LinearV2(in_features=128, out_features=128, lmax=6)
      )
      (drop_path): GraphDropPath(drop_prob=0.1)
      (norm_2): EquivariantLayerNormArraySphericalHarmonics(lmax=6, num_channels=128, eps=1e-05, std_balance_degrees=True)
      (ffn): FeedForwardNetwork(
        (SO3_grid): (6, 6)
        (so3_linear_1): SO3_LinearV2(in_features=128, out_features=128, lmax=6)
        (scalar_mlp): Sequential(
          (0): Linear(in_features=128, out_features=128, bias=True)
          (1): SiLU()
        )
        (grid_mlp): Sequential(
          (0): Linear(in_features=128, out_features=128, bias=False)
          (1): SiLU()
          (2): Linear(in_features=128, out_features=128, bias=False)
          (3): SiLU()
          (4): Linear(in_features=128, out_features=128, bias=False)
        )
        (so3_linear_2): SO3_LinearV2(in_features=128, out_features=128, lmax=6)
      )
    )
    (19): TransBlockV2(
      (norm_1): EquivariantLayerNormArraySphericalHarmonics(lmax=6, num_channels=128, eps=1e-05, std_balance_degrees=True)
      (ga): SO2EquivariantGraphAttention(
        (SO3_rotation): ModuleList(
          (0): SO3_Rotation(
            (mapping): CoefficientMappingModule(lmax_list=[6], mmax_list=[6])
          )
        )
        (mappingReduced): CoefficientMappingModule(lmax_list=[6], mmax_list=[3])
        (SO3_grid): (6, 6)
        (source_embedding): Embedding(90, 128)
        (target_embedding): Embedding(90, 128)
        (so2_conv_1): SO2_Convolution(
          (mappingReduced): CoefficientMappingModule(lmax_list=[6], mmax_list=[3])
          (fc_m0): Linear(in_features=1792, out_features=1024, bias=True)
          (so2_m_conv): ModuleList(
            (0): SO2_m_Convolution(
              (fc): Linear(in_features=1536, out_features=768, bias=False)
            )
            (1): SO2_m_Convolution(
              (fc): Linear(in_features=1280, out_features=640, bias=False)
            )
            (2): SO2_m_Convolution(
              (fc): Linear(in_features=1024, out_features=512, bias=False)
            )
          )
          (rad_func): RadialFunction(
            (net): Sequential(
              (0): Linear(in_features=856, out_features=128, bias=True)
              (1): LayerNorm((128,), eps=1e-05, elementwise_affine=True)
              (2): SiLU()
              (3): Linear(in_features=128, out_features=128, bias=True)
              (4): LayerNorm((128,), eps=1e-05, elementwise_affine=True)
              (5): SiLU()
              (6): Linear(in_features=128, out_features=5632, bias=True)
            )
          )
        )
        (alpha_norm): LayerNorm((64,), eps=1e-05, elementwise_affine=True)
        (alpha_act): SmoothLeakyReLU(negative_slope=0.2)
        (alpha_dropout): Dropout(p=0.1, inplace=False)
        (s2_act): SeparableS2Activation(
          (scalar_act): SiLU()
          (s2_act): S2Activation(
            (act): SiLU()
          )
        )
        (so2_conv_2): SO2_Convolution(
          (mappingReduced): CoefficientMappingModule(lmax_list=[6], mmax_list=[3])
          (fc_m0): Linear(in_features=448, out_features=896, bias=True)
          (so2_m_conv): ModuleList(
            (0): SO2_m_Convolution(
              (fc): Linear(in_features=384, out_features=1536, bias=False)
            )
            (1): SO2_m_Convolution(
              (fc): Linear(in_features=320, out_features=1280, bias=False)
            )
            (2): SO2_m_Convolution(
              (fc): Linear(in_features=256, out_features=1024, bias=False)
            )
          )
        )
        (proj): SO3_LinearV2(in_features=128, out_features=128, lmax=6)
      )
      (drop_path): GraphDropPath(drop_prob=0.1)
      (norm_2): EquivariantLayerNormArraySphericalHarmonics(lmax=6, num_channels=128, eps=1e-05, std_balance_degrees=True)
      (ffn): FeedForwardNetwork(
        (SO3_grid): (6, 6)
        (so3_linear_1): SO3_LinearV2(in_features=128, out_features=128, lmax=6)
        (scalar_mlp): Sequential(
          (0): Linear(in_features=128, out_features=128, bias=True)
          (1): SiLU()
        )
        (grid_mlp): Sequential(
          (0): Linear(in_features=128, out_features=128, bias=False)
          (1): SiLU()
          (2): Linear(in_features=128, out_features=128, bias=False)
          (3): SiLU()
          (4): Linear(in_features=128, out_features=128, bias=False)
        )
        (so3_linear_2): SO3_LinearV2(in_features=128, out_features=128, lmax=6)
      )
    )
  )
  (norm): EquivariantLayerNormArraySphericalHarmonics(lmax=6, num_channels=128, eps=1e-05, std_balance_degrees=True)
  (energy_block): FeedForwardNetwork(
    (SO3_grid): (6, 6)
    (so3_linear_1): SO3_LinearV2(in_features=128, out_features=128, lmax=6)
    (scalar_mlp): Sequential(
      (0): Linear(in_features=128, out_features=128, bias=True)
      (1): SiLU()
    )
    (grid_mlp): Sequential(
      (0): Linear(in_features=128, out_features=128, bias=False)
      (1): SiLU()
      (2): Linear(in_features=128, out_features=128, bias=False)
      (3): SiLU()
      (4): Linear(in_features=128, out_features=128, bias=False)
    )
    (so3_linear_2): SO3_LinearV2(in_features=128, out_features=1, lmax=6)
  )
  (force_block): SO2EquivariantGraphAttention(
    (SO3_rotation): ModuleList(
      (0): SO3_Rotation(
        (mapping): CoefficientMappingModule(lmax_list=[6], mmax_list=[6])
      )
    )
    (mappingReduced): CoefficientMappingModule(lmax_list=[6], mmax_list=[3])
    (SO3_grid): (6, 6)
    (source_embedding): Embedding(90, 128)
    (target_embedding): Embedding(90, 128)
    (so2_conv_1): SO2_Convolution(
      (mappingReduced): CoefficientMappingModule(lmax_list=[6], mmax_list=[3])
      (fc_m0): Linear(in_features=1792, out_features=1024, bias=True)
      (so2_m_conv): ModuleList(
        (0): SO2_m_Convolution(
          (fc): Linear(in_features=1536, out_features=768, bias=False)
        )
        (1): SO2_m_Convolution(
          (fc): Linear(in_features=1280, out_features=640, bias=False)
        )
        (2): SO2_m_Convolution(
          (fc): Linear(in_features=1024, out_features=512, bias=False)
        )
      )
      (rad_func): RadialFunction(
        (net): Sequential(
          (0): Linear(in_features=856, out_features=128, bias=True)
          (1): LayerNorm((128,), eps=1e-05, elementwise_affine=True)
          (2): SiLU()
          (3): Linear(in_features=128, out_features=128, bias=True)
          (4): LayerNorm((128,), eps=1e-05, elementwise_affine=True)
          (5): SiLU()
          (6): Linear(in_features=128, out_features=5632, bias=True)
        )
      )
    )
    (alpha_norm): LayerNorm((64,), eps=1e-05, elementwise_affine=True)
    (alpha_act): SmoothLeakyReLU(negative_slope=0.2)
    (s2_act): SeparableS2Activation(
      (scalar_act): SiLU()
      (s2_act): S2Activation(
        (act): SiLU()
      )
    )
    (so2_conv_2): SO2_Convolution(
      (mappingReduced): CoefficientMappingModule(lmax_list=[6], mmax_list=[3])
      (fc_m0): Linear(in_features=448, out_features=896, bias=True)
      (so2_m_conv): ModuleList(
        (0): SO2_m_Convolution(
          (fc): Linear(in_features=384, out_features=1536, bias=False)
        )
        (1): SO2_m_Convolution(
          (fc): Linear(in_features=320, out_features=1280, bias=False)
        )
        (2): SO2_m_Convolution(
          (fc): Linear(in_features=256, out_features=1024, bias=False)
        )
      )
    )
    (proj): SO3_LinearV2(in_features=128, out_features=1, lmax=6)
  )
)
Loaded EquiformerV2_OC20 with 153602690 parameters.
Parameters without weight decay:
['module.blocks.0.ffn.scalar_mlp.0.bias', 'module.blocks.0.ffn.so3_linear_1.bias', 'module.blocks.0.ffn.so3_linear_2.bias', 'module.blocks.0.ga.alpha_norm.bias', 'module.b
…
